code/rnn_model.pth (torch, 308387 bytes, 12 tensors)

rnn.weight_ih_l0 f4 [128, 58]
00000000: 8632 c0bd 6e34 c23d 2ad4 153e 33bf ef3e
00000010: e766 13bf 0dec fa3c f0e9 283f 782f f93c
00000020: f239 8e3e 7dc8 1ebe 694e 0fbf a3bb da3e
00000030: b210 293d 6aa5 a4be 2182 5fbe dd23 6d3e
00000040: bc1b b7bd 763f ff3e 7d2f 79bd 0f9f 1bbf
00000050: 80c2 41be ece8 46bf 8450 083e 2e4e 3fbd
00000060: 45f7 29bd c487 093f b709 b4be a6e4 24bd
00000070: aa69 203e e59b 7abd 83a1 5b3e 5d40 343e
00000080: b041 6cbe dd8d 07be a71c 6d3d 0ce3 503e
00000090: 3f98 bcbd 4de6 2b3e bb89 383e 939b 2a3c
000000a0: 8349 383e 5342 c43d 20a5 94bd 029a 4fbc
000000b0: ffa9 b83d 8cb2 a6be c280 253e 2230 7b3e
000000c0: 4b01 01be afab 06be 048e 423e 0441 a7be
000000d0: 65b7 913c 5bd9 16bd d048 bf3b 42ef 00bc
000000e0: e017 913d e17e 2cbd 8010 f63e d8a4 21be
000000f0: 6da3 023e 7049 55be 77b2 db3e 2b4c c13d
00000100: 2a73 5bbe 93f2 6ebd 86d1 2abf 5d74 7dbe
00000110: a7dc 9dbf 5f7e 483e b09b 5a3e 051d 2b3e
00000120: bce1 1b3f 0a18 a2be a63b babc 5da2 65bc
00000130: 9bfa e83e a3cc 4f3e c0cb a83e 4832 29bd
00000140: d2dc 80be c205 4c3e a127 ab3e 9a67 8ebf
00000150: 59c1 4d3e 079d 163e e8e1 d53c 51d0 cc3d
00000160: 3695 963e bf98 69be 85bd 16be 05ee d63d
00000170: 27f6 ea3e 2764 3fbe 509a 57be 0a70 8ebb
00000180: 6250 dabe 6fb9 a3be 1c51 a23e 1302 9dbd
00000190: 4e7f 57bc 6eb8 08be 8dc8 26be 5d2b f53e
000001a0: 7431 1e3e 9368 e93c dc42 2a3e 9abe 33bd
000001b0: 6b92 d13d beee 553e cd32 17bd 1f26 34bd
000001c0: 0bf7 8c3c b5a7 f2bc d8d5 d6be 0752 b4be
000001d0: 14a0 633d 3d7b 063f 8888 b5bd 359f 2b3e
000001e0: c0f3 acbd 7ad5 45bd 61bf a83e cff0 0e3f
000001f0: 2cf7 17bf cc7e 67bd 2a81 c33c b918 cabd
00000200: e08a a8bc ac48 9cbb 2a53 b5be 2a8b be3d
00000210: 174e 37bc e2da 893e 1985 af3e 89f6 873e
00000220: 9848 21bf b591 413e d910 e73d e33d 21bd
00000230: d896 c1bd 4c72 a3be 2830 4f3c c152 2a3e
00000240: 9d9a 8ebe 6d4c 69bc 11d7 53be 670f debd
00000250: 654f 0f3e 6a08 bb3d fb54 d6be 8ff7 3ebd
00000260: d76d 9f3d 89a1 37be e282 6dbd 1c3e 893d
00000270: 58d6 02be 927b 1cba 7122 e8bd fa80 36bd
00000280: c977 0f3e 5f96 243e c7c5 8fbd 31e1 113e
00000290: a458 22be 184a f63c 006d f1bd 954b 8e3e
000002a0: 11ad ccbc e6b4 913d 1d67 093d 1008 94bc
000002b0: c487 013d 317d ef3c c10e afbe eb40 b2be
000002c0: 8235 043f 408b 833e 1feb 3f3e e4a0 8cbd
000002d0: b4bf 5bbf 7615 9cbd a65e 0a3d ba92 6cbd
000002e0: 8cba 0d3f e3fb 983e 99d2 9ebe 9602 873e
000002f0: a6ae b8be fbd4 76be be5a 24bd fedf 45be
00000300: d866 37be 74d9 313f a0fe 52be 54bd 113f
00000310: 2338 bb3d b0f1 9b3e ab72 693f b2df d7be
00000320: 1f64 04be 2b99 18be ebc7 243e 6278 75bd
00000330: 887d af3d 6479 e63d 1973 3f3e 1f31 79be
00000340: a602 7d3e f7c6 a0bd b648 2fbe 0050 163a
00000350: 0571 74be 10cb 3f3e 4cf6 84be cdac 833e
00000360: 343d 303d 421f f63d 16c6 b2bd afaf f33c
00000370: 9ce7 8dbe f094 d6be a5f7 d03e 3eef 9c3d
00000380: e0bf e1bd 72f9 3e3d a01d 7cbe e3dc 08bd
00000390: b7a2 283d 6566 a93d 2708 cabd 176c 24bf
000003a0: 2a83 b03e b24b 63be db7b 0bbf 1704 41be
000003b0: 2997 523f 1b88 e6be da6b d6bd 7307 f9be
000003c0: 526a a93e 29d5 d33e 149f 37bf 193a 2cbe
000003d0: 2214 9a3e b6be 323e fd0f a03b c4d4 89be
000003e0: c0ab 333d 9e2e 88be 6ce9 0c3f bac8 bc3d
000003f0: 04b4 b33e 2416 99bf 983f 9cbe cbcd 723e
-0.093846366 0.094826564 0.14631715 0.4682556 -0.5757889 0.030630136 0.6598196 0.030418143
0.27778584 -0.15506168 -0.5597902 0.4272128 0.041275688 -0.3215745 -0.21826984 0.23158212
-0.08940837 0.49853104 -0.060836304 -0.6078958 -0.18921852 -0.7769916 0.13311964 -0.046705417
-0.04149558 0.53722787 -0.35163662 -0.04025712 0.15665308 -0.06118383 0.2144833 0.17602678
-0.23071933 -0.1323771 0.057888653 0.20399112 -0.09208726 0.16787072 0.1802129 0.010413068
0.17996792 0.09582963 -0.072580576 -0.012670996 0.09016799 -0.32558095 0.16162398 0.2453008
-0.1259815 -0.1315143 0.18999487 -0.3266679 0.017787645 -0.03682838 0.0058375373 -0.0078695435
0.07084632 -0.04211319 0.48059464 -0.15785539 0.12757654 -0.20828795 0.42909595 0.09438356
-0.2143065 -0.058336806 -0.6672596 -0.2475142 -1.2332963 0.19579457 0.21348453 0.16710289
0.6089132 -0.31658965 -0.02273352 -0.014015761 0.45503697 0.20292906 0.3296795 -0.041307718
-0.25168473 0.19924071 0.33428672 -1.1125367 0.20093288 0.14708339 0.026108697 0.10000671
0.29410714 -0.22812174 -0.14720733 0.104946174 0.45890924 -0.18690549 -0.2105496 -0.004346852
-0.42639452 -0.31977412 0.31702507 -0.07666411 -0.01315291 -0.13351604 -0.16287442 0.47884646
0.15448552 0.028492248 0.16627067 -0.043882944 0.10233005 0.20891854 -0.03691368 -0.043981668
0.017207643 -0.029620985 -0.41960025 -0.35218832 0.055572584 0.52531797 -0.08863932 0.16759951
-0.08444929 -0.04829929 0.3295851 0.55836195 -0.5936153 -0.056517407 0.023865301 -0.09867997
-0.020574033 -0.0047694054 -0.35415012 0.09303887 -0.011188052 0.26924807 0.34281233 0.2655528
-0.63001394 0.18903239 0.1128251 -0.03936566 -0.09452599 -0.3192314 0.012645759 0.1663313
-0.27852336 -0.014239413 -0.2068751 -0.108427815 0.1399513 0.09132464 -0.4186171 -0.04662281
0.07784622 -0.17932715 -0.057986148 0.067012995 -0.12777078 -0.0005969341 -0.11334694 -0.044556595
0.14010538 0.16072987 -0.07020145 0.1424606 -0.15854126 0.030064628 -0.11788368 0.2779204
-0.024984868 0.07114582 0.033545602 -0.01807025 0.031623617 0.0292345 -0.34190944 -0.34815153
0.51644146 0.25692177 0.18742035 -0.06866625 -0.8583939 -0.07621281 0.03378167 -0.057757117
0.5536277 0.29879674 -0.31020048 0.2636916 -0.36070746 -0.24104683 -0.0401256 -0.19323727
-0.17910326 0.6947243 -0.20604944 0.56929517 0.091415666 0.3045783 0.91190594 -0.42162853
-0.12928818 -0.14902179 0.16091888 -0.05992926 0.08568865 0.11253622 0.1869625 -0.24335144
0.24708042 -0.078504495 -0.17117581 0.0005733967 -0.23871239 0.18729806 -0.2596916 0.25717774
0.043027118 0.12017681 -0.08729188 0.029746858 -0.27715766 -0.41910505 0.40813938 0.07662819
-0.110229254 0.04662461 -0.24620676 -0.03341378 0.041170802 0.08271483 -0.09864836 -0.6422743
0.3447507 -0.22196844 -0.54485863 -0.18849216 0.822619 -0.45025715 -0.1046979 -0.48638496
0.33088928 0.41373566 -0.7172711 -0.16819037 0.30093485 0.17455563 0.0048847185 -0.2692014
0.043864965 -0.26598066 0.55043674 0.09217973 0.3509828 -1.1959882 -0.30517268 0.23711316

rnn.weight_hh_l0 f4 [128, 128]
00000000: cae1 b4bd 827c 24bd 9964 a03d 38cb 5ebc
00000010: 3072 a1bb 7f7b 373c 5109 3d3e 5c8e 00be
00000020: f518 54bd 26bd 373d ba42 5cbd c2c8 a13c
00000030: 0706 cd3c 7c27 e5ba 90f9 85bd 6502 c5bd
00000040: c8b7 d13d 5e40 723c 93fd 18bc d6f2 28bc
00000050: 9faa adbc 8e28 4e3d 21f6 1fbd a0e5 18bd
00000060: 67a5 9c3d 98bb 72bb c9f7 e5bc da5c 923d
00000070: 294d 46bc 2a1a 29bd aa34 163d 3354 383d
00000080: 0318 293d 61f4 a4bd 23da 443c 1488 6d3d
00000090: e295 883c b36b e83c 2ffa b1bc 735c 0f3d
000000a0: 09a2 a43d 9b53 063d fe22 22be b973 edbd
000000b0: 9641 3b3d cf61 47bd 1665 d6bc 936b c13c
000000c0: b2a4 713d fa3f 32bd 23e6 db3c 0161 f7bb
000000d0: f48c 4cbd ee3d 843d 1521 d5bb 631b b23d
000000e0: 1d76 3abc accc 21bd 7db1 f23d 660a 5d3d
000000f0: 3421 28bd c673 adbd 5a43 0c3d fde0 503c
00000100: 7863 a83c 9446 d23d 6fab 3bbd 52a8 9c3c
00000110: dfdf 0abe a807 0fbd e37f ee3d a579 023d
00000120: 171f eb3d 7632 5b3c 9dad fc3c 399d 90bd
00000130: 4c4f 6dbc 0397 8f3d dc66 c8bc 5e4c b9bc
00000140: 7ee0 683d cb74 83bc b4d3 ad3d fd68 f03d
00000150: f474 8fba 8e96 783c b22f a43d 3ff6 c93d
00000160: 5042 36bd 7f5a 0dbd c51e 8abd 59e6 38bd
00000170: be2b 0dbd 3707 3dbd d4e6 57bd 9bc1 933c
00000180: 5664 87bd 9496 a6bd 3de4 2f3c 4ae3 8fbd
00000190: 8d9f ab3d 39db bf3d a2c0 cf3d 938d a23a
000001a0: 4c2d e2bd 991c b33c 0219 bb3c 030b 5e3d
000001b0: 3835 823c eb86 a9bd c12e c6bd 20c4 5a3d
000001c0: 4f73 59bd 2289 b03c 4189 c6bc 591f 50bd
000001d0: 3e3b d03c 88e5 cf3b fe3c a73c c47c 043e
000001e0: 0b32 0b3d b8c1 fabc d6a8 583c 4fdc b23d
000001f0: e063 85bd a484 b43d b586 71bd 178e c5bd
00000200: 330a f0bd ae1c 29bd ebb4 4bbc c961 86bd
00000210: f212 773d 4436 c3bd 4bb3 0abc 3c31 ddbd
00000220: 4e3c d8bc 8dac 0bbc 0c4e 0dbd 6322 353e
00000230: 7d74 323e c6d1 8e3d 4ef7 0abd 46dd 8abd
00000240: 0a16 66bc 1a7a fd3c 5cac 60bc 99ee 3e3c
00000250: 36e2 69bd 6bf7 ebbc 3460 d1bc d385 e03c
00000260: 4cad 923c 9eb1 063d df5d ff3c 3495 02bd
00000270: 13a2 b13d 3c60 c9b9 72f4 aa3c b7fd 3a3d
00000280: c336 873d 0582 36bd 739a cabc 66b5 753d
00000290: 3347 1abc ec30 24bd 6326 f4bd 07f2 5e3d
000002a0: 4804 0a3e 22ff 003e d378 783d 8d2e 1dbd
000002b0: e229 0cbd 2af4 8f3d 77be d13d 0416 efbc
000002c0: 009a 79bc e62f 7dbd 7558 383d b7d3 fc3c
000002d0: 5f4e 9f3d 0c84 ef3d d070 94bd f548 cd3c
000002e0: be76 473d 72d7 b23d ca90 72bc 7f39 c13d
000002f0: 8be2 6abb f40e 37bd 368c 0dba 9c68 a2bd
00000300: 6dc2 133d d014 a6bd b1fb 74bd f50f bc3d
00000310: 9cd6 513d 22be 9abd c7b4 ac3c 1c19 903d
00000320: 18ab 0abe ddaf 553d 5bf1 103d e2a9 20bd
00000330: b63a 3e3d 4fa8 83bd f305 1dbd 422c 253e
00000340: 3512 80bc 37bd 8c3d dbae 21bc 9bb3 99bd
00000350: 295b 3c3c 44a5 2abd ac8c 033d 81c5 0b3e
00000360: 87cc cbbc 971c 443c ee4c 2d3c 58ba 28bd
00000370: d87b 9cbd 45b4 2abe 3d24 db3d 6ebb 793d
00000380: dbc1 82bc b6a9 b2bc 136b 64bc f679 843c
00000390: f409 21bd f6e5 3e3e 2ff1 663d 868c c23d
000003a0: bd15 79bb 093c 11bc 9675 41bd d265 173c
000003b0: 0f6a dbbc 4658 cb3b 5800 c7bd faca 8ebd
000003c0: db47 13bd 884f 983d 6553 153e ddf0 06bc
000003d0: 7a0d a2bc b122 b73d e024 40bc 321d df3d
000003e0: b2f6 833d 554f 0ebd 4d02 9fbc 1763 fb3c
000003f0: c526 e1bc 8ceb f23d 39ca 09be 75f7 b53c
-0.08832128 -0.040157802 0.078316875 -0.013598256 -0.0049269423 0.011198877 0.18460585 -0.12554306
-0.051781613 0.04485812 -0.053774573 0.01974905 0.025027288 -0.0017483081 -0.06541741 -0.09619597
0.102401316 0.014785854 -0.009337801 -0.010311803 -0.021199523 0.050331645 -0.039053086 -0.037328362
0.076487355 -0.0037038084 -0.028072255 0.07146616 -0.012103357 -0.041284718 0.036671318 0.045002174
0.041282665 -0.08054424 0.0120148985 0.057991102 0.016673032 0.028371667 -0.021725742 0.035000276
0.08038718 0.032794576 -0.15833661 -0.11594338 0.045716844 -0.048677262 -0.026171248 0.023610866
0.058994956 -0.043518044 0.026843136 -0.0075494056 -0.04993911 0.06457125 -0.006504188 0.0869663
-0.011380699 -0.03950183 0.118502595 0.053964995 -0.04104729 -0.08469348 0.03424392 0.012748954
0.020555243 0.10267368 -0.04581779 0.01912323 -0.13561963 -0.03491941 0.11645486 0.03185429
0.11480539 0.01337873 0.030844504 -0.07061238 -0.014484238 0.07011225 -0.02446311 -0.022619423
0.056854717 -0.016046902 0.08487645 0.11738775 -0.0010944889 0.015172614 0.0801691 0.09861421
-0.044496834 -0.034510132 -0.0674415 -0.04514155 -0.034465544 -0.04614946 -0.05271037 0.018036654
-0.066109344 -0.08134189 0.010735569 -0.07025774 0.08380041 0.09367985 0.10144164 0.0012401812
-0.11043796 0.021864222 0.022839073 0.05420972 0.015894517 -0.08277687 -0.09676886 0.053409696
-0.053088482 0.021549765 -0.02423537 -0.050811145 0.025418874 0.006344501 0.020414826 0.1293822
0.03398327 -0.03060995 0.013223847 0.08733427 -0.0651319 0.08814362 -0.058966357 -0.09646242
-0.11720695 -0.041287117 -0.012433271 -0.0656162 0.060320802 -0.09531835 -0.008465598 -0.10800406
-0.026395943 -0.008525026 -0.03449826 0.17688899 0.17427249 0.06973605 -0.033927254 -0.06780486
-0.01404334 0.030942012 -0.013712969 0.011653566 -0.057100497 -0.028804502 -0.025558569 0.027407562
0.0179049 0.032884233 0.03117269 -0.031880572 0.08673491 -0.00038409408 0.020868514 0.045652118
0.06602242 -0.04455759 -0.02473185 0.05998745 -0.009416389 -0.040085718 -0.11921384 0.054430034
0.13478196 0.12597325 0.060662102 -0.038374472 -0.03421963 0.070289925 0.102414064 -0.029185303
-0.01523447 -0.061813258 0.045006234 0.030862672 0.0777862 0.11695108 -0.0724808 0.025059203
0.048697226 0.08732499 -0.014805028 0.09434795 -0.0035840597 -0.044691995 -0.0005399616 -0.07930109
0.03607409 -0.081094384 -0.059810344 0.09182731 0.051230058 -0.07555796 0.021082295 0.07036039
-0.1354183 0.05216967 0.035386425 -0.039224513 0.04644271 -0.06428587 -0.03833575 0.16130164
-0.015633682 0.06872027 -0.009868349 -0.0750496 0.011496344 -0.041661516 0.032116577 0.1364956
-0.0248778 0.011969707 0.0105774235 -0.041193336 -0.07640809 -0.1667033 0.10700271 0.060969763
-0.015961578 -0.02180944 -0.013941544 0.016171437 -0.039316133 0.1864241 0.056382354 0.09499459
-0.0038007342 -0.008864411 -0.04723128 0.009240584 -0.026783971 0.0062055914 -0.097168624 -0.069723085
-0.0359572 0.074370444 0.14582594 -0.008236137 -0.019781817 0.08942164 -0.011727542 0.108942404
0.06443538 -0.034743626 -0.019410277 0.030686898 -0.027484307 0.11861333 -0.13456048 0.022212723

rnn.bias_ih_l0 f4 [128]
00000000: 1b42 fbba 0346 92bd bfe8 483d 9c5d 843d
00000010: 9eab 0c3d c1c4 673d 6b10 283d 40f6 c43d
00000020: e029 8f3c 140a 523d 6256 1fbc 72a6 2abd
00000030: 4dea 00be 509f 92bc ff79 df3b 8013 97bd
00000040: a8fb f7bd b078 d9bc 2564 b63b defe bebc
00000050: 45d0 473d a7e5 cbbd 961f 8fbd 5e54 92bd
00000060: a826 19bd 8b56 f7bc 8e91 153d fd9b 923d
00000070: 9442 0dbe 2d1b 31bd 34c3 f1bc 0cce a63d
00000080: 0c31 0bbc 26f9 633d 3c41 b4bd 13af 9d3d
00000090: 684b 923c 2a33 46bd a5a9 893d 36e3 283d
000000a0: 4996 7abc 3c7c 863d 1aa6 68bc 828a b73b
000000b0: b1b3 a23d c3f3 d5bd f682 073d 1efd 0039
000000c0: 02fa 833d cbd9 7c3d 5bb5 31bd cd99 03bd
000000d0: 82dd b73d 9b1c 5dbc efe9 b2bc 37d1 ab3d
000000e0: 8c9d 96bd 24c1 83bd 257b dabc e747 11bd
000000f0: b8c2 613d 4879 f43c a189 ba3c 2e51 09bc
00000100: 6bf5 bdbd 405b 13be 9ff4 37bd 6821 803c
00000110: 5e3a 1dbd 962d 983d 406b 00bd bccd dd3d
00000120: cf99 b03d 6982 ac3d 870c 24bd 64fa 663d
00000130: 573f 25bd 1ab5 123d 1910 143d 6865 02bd
00000140: ae24 e7bc 8503 9dbd b9d2 8bbd 05e5 433d
00000150: 8b04 3cbc 0318 f6bc 01d0 6dbc 98ce 8bbc
00000160: f839 5e3d d957 c83b 958f b23d 1684 113c
00000170: 0af3 353c 7190 323d b245 203d 2e6e 0bbd
00000180: a33c c4bd e91f 8cbd 222c 2d3c eb97 573c
00000190: 2f67 8bbd e5c0 4d3d b7ac b93b 9677 a23b
000001a0: 008f ffbc 4e9b 72bc d062 193d a54b 76bc
000001b0: ebe0 563d e314 37bc 8117 523d 9c96 c73d
000001c0: f4a8 d7bc 3d21 d13d 8c9c 56bc 77b7 a4bd
000001d0: 6994 b0bd b10f 83bd d57c e93c e10f 743d
000001e0: 24c7 8cbd e8cc e83c dd7b ad3d 12d6 333d
000001f0: 1942 9e3d 471b dfbc 852e 9c3d 8227 94bc
-0.0019169481 -0.0714226 0.04905009 0.06463167 0.034343354 0.056584124 0.041031282 0.09617281
0.017476022 0.051279142 -0.009725185 -0.04166264 -0.12589379 -0.017898232 0.006819963 -0.07376766
-0.121085465 -0.026546806 0.0055661374 -0.02331489 0.048782606 -0.09955912 -0.069884464 -0.07144998
-0.03739038 -0.030192634 0.036515765 0.07158659 -0.13794929 -0.043238807 -0.029512025 0.08144769
-0.00849558 0.05565753 -0.08801505 0.076994084 0.017858222 -0.048388638 0.0672181 0.04123231
-0.01529462 0.065666646 -0.014199758 0.005601228 0.0794443 -0.104468845 0.03308388 0.00012301325
0.064441696 0.06173114 -0.043385845 -0.032129098 0.08977796 -0.01349559 -0.021840064 0.08389514
-0.073542684 -0.06433323 -0.026670048 -0.035468962 0.05511734 0.029842988 0.022770705 -0.008381171
-0.092753254 -0.14390278 -0.044911023 0.01564093 -0.03838574 0.0743057 -0.03135228 0.10830256
0.08623087 0.08423311 -0.04005101 0.056391135 -0.04034361 0.035817243 0.036148164 -0.03183499
-0.028215732 -0.07666687 -0.068273015 0.047825832 -0.0114756925 -0.030040747 -0.014514924 -0.017066285
0.054254502 0.006113988 0.08718792 0.008881589 0.011105308 0.04359478 0.039128967 -0.034040622
-0.09581878 -0.06842024 0.010569604 0.013158779 -0.0680679 0.050232787 0.005666341 0.0049581034
-0.031196117 -0.014807535 0.03744775 -0.0150326835 0.052460592 -0.011174413 0.051291946 0.09745523
-0.02632568 0.10211418 -0.013098847 -0.08042806 -0.08622057 -0.06399477 0.028501907 0.059585456
-0.068739206 0.02841802 0.08470891 0.043905325 0.07727451 -0.027234687 0.076260604 -0.018085245

rnn.bias_hh_l0 f4 [128]
00000000: d7fd 31bd 959a c8bd 6ddc 20bc c36e 35bc
00000010: c827 083d 91bc 883d 7b48 553d a665 293c
00000020: 2f67 143a be60 78bd 004d 763d f7ca c7bc
00000030: e998 77bd 18fa 01bd 4926 bd3a a9e1 70bd
00000040: e33c 31bb e0ac 92bd 3c6e e13c 7fa4 9c3d
00000050: d166 25bc f5ad 363b ba02 a8bb ad67 d2bc
00000060: 32ce 40bd 1b2e e53c b4a1 7ebc 20f1 a3bd
00000070: 7f76 55bd 3662 60bd c690 573c 0515 543d
00000080: ee97 e2bc 6494 01bc 015c b1bd 3415 eabb
00000090: 215a 1abd 1765 c33d e169 a5bc 0193 17bb
000000a0: 8867 0ebd ca87 1cbc 308b c3bc b66b a63d
000000b0: af13 a43c f409 bb3a 5589 bc3d 132d ccbd
000000c0: a267 c63b 294f 05bd 37fd 1fbc f312 d33c
000000d0: 8548 80bd 7eb8 0c3d ba70 87bd e657 85bd
000000e0: 5b69 e53b 5e7e 8e3d 0fe9 563d c880 943c
000000f0: a4f5 d6bd c373 3d3d 91b6 29bd e412 ba3d
00000100: ce32 6bbd f8c2 bc3b 2a0a 55bd f29a 033c
00000110: 77f3 403b 6525 d63b 68be 473d 13da 6abc
00000120: fce4 bc3d a4f4 903d e390 e53c 660b 073c
00000130: 3ee3 ae3c ab7c 393d 9aa8 5a3d 0bc1 283d
00000140: ee7d 3e3c e069 193d 4b2a c3bd 9b90 cd3c
00000150: e8d8 77bd 4ab0 81bd 2de2 353d 4320 693d
00000160: 8e24 1e3e 3906 8a3d 9c86 ae3d 134b b63d
00000170: 8c3d a13a 7c17 d7bb ee18 7bbd 70bd 0d3d
00000180: ba5b ebbc 91a8 07be 2d46 c6bd 38d4 a5bd
00000190: 8d08 c63d 2347 e2bc 5c63 c13d f649 6e3c
000001a0: ed9c 7d3c fdbe 6cbd 7982 b73c 6d9d bdbd
000001b0: aac4 233e 2603 e6bb eca7 d5bc 6646 e93c
000001c0: 87a4 3d3d 0e83 8b3d 81dc b13b b606 233d
000001d0: c80a e33c 55b5 97bd b49a ff3c b225 473d
000001e0: 62cf 8d3d f468 973c 1abd d63d 2b0c 2d3c
000001f0: b4aa a53d cdc0 9cbd 320f 583d 83af 863c
-0.04345497 -0.09795109 -0.009818179 -0.011073771 0.033241063 0.06676591 0.052071076 0.010339176
0.00056611275 -0.060639136 0.060132027 -0.024388773 -0.06044856 -0.03173265 0.0014430966 -0.058808956
-0.0027044348 -0.071618795 0.027518384 0.07648563 -0.010095314 0.0027874683 -0.005127278 -0.025684202
-0.047071643 0.027976086 -0.015541483 -0.08004975 -0.05211496 -0.05478116 0.013157075 0.05177786
-0.027660336 -0.007908914 -0.086601265 -0.007143641 -0.03768361 0.09540766 -0.020192089 -0.0023128393
-0.034766704 -0.009553859 -0.02387008 0.08126013 0.020028917 0.0014269934 0.092058815 -0.09969535
0.0060548345 -0.032546196 -0.009764961 0.025765872 -0.06263832 0.034355633 -0.06613298 -0.06510906
0.0070010847 0.069576964 0.052468356 0.018127814 -0.10496071 0.046252977 -0.041433875 0.09085634
-0.057421498 0.005760547 -0.052011646 0.008032547 0.0029441991 0.0065352195 0.04876557 -0.0143342195
0.09223363 0.070779115 0.028023189 0.008242464 0.021348592 0.04528491 0.053383447 0.041199725
0.011626704 0.037454486 -0.09529551 0.025093367 -0.060509592 -0.063324526 0.04440515 0.056915533
0.15443632 0.06739468 0.085217685 0.08901038 0.0012301668 -0.006564079 -0.06130307 0.03460449
-0.028730262 -0.13247897 -0.09681354 -0.08097118 0.096696 -0.027621811 0.094427794 0.014544001
0.015479309 -0.057799328 0.022401081 -0.09258542 0.1599299 -0.0070194183 -0.026081048 0.028475951
0.046299484 0.06812106 0.0054278974 0.039801322 0.027715102 -0.07407633 0.031201698 0.048619933
0.06924321 0.018482663 0.10485287 0.010561983 0.080892 -0.07653961 0.052748866 0.016441112

rnn.weight_ih_l1 f4 [128, 128]
00000000: c877 453c 4e86 cbbc cb6d 5b3d f675 663c
00000010: 552d 07be 7a95 693e c4dd 9cbc 5fcd 7ebd
00000020: ae97 9b3d ea96 8c3c b0e3 a1bc c5a4 86bd
00000030: b47c bc3b dae7 83be 1b70 babe 9316 3c3e
00000040: 494c 33bd aca7 91bc f29e d3bd 4400 833d
00000050: d934 903e 6fe1 c43d 969b f1bc 6b88 6bbc
00000060: 3c90 8439 138c a6bd 3ca5 4d3e e96a bdbd
00000070: 6258 aa3c 5bc1 cabe a005 b83e cc6c 2fbd
00000080: d9df 86be a942 e3bd 088e 27be 1176 6e3e
00000090: e31e c33d 500f cc3d 7810 6cbe bb96 d93d
000000a0: 42e2 ef3e 124a b2bd 18f4 68be 2b25 25be
000000b0: 8e52 75bd 2dd5 e43c 7e36 58be f3ad e7bd
000000c0: e0ed 4c3e 1f35 9e3d 1abc 023e 770a ad3d
000000d0: c280 58be e0b4 513c 88b8 423e ec2d 103e
000000e0: f501 6bbd 4aae 53bd 4258 8a3c c6f6 c3bd
000000f0: d21f 703d f3f5 42be c3ca 4cbe 5759 e43c
00000100: 73f5 4c3e 73e5 b93d 90c8 6e3e 4c67 973c
00000110: 7e47 83bd 3d70 5b3e 1aac 333e 1c04 273d
00000120: f4a4 0bbe ab86 0b3e 5569 da3d 74f4 fa3d
00000130: 53f3 483d 3405 223d 5dfc e23c 31c6 06be
00000140: 360e 60be a173 db3d 6861 bd3d e45b 473d
00000150: a7ad 7cbb b64d 10be 2c31 c33e da23 0a3d
00000160: d6ae 80be 7453 3f3e 000f ecbd 01f0 373c
00000170: 0022 adbe 2f82 58bd 03bb fb3d a336 bcbd
00000180: ab8c 383e 8a08 c33c 79db ac3d f7ff a2bd
00000190: 7a38 a7bd 8615 c9bd 5a9f 0f3d b68e c83d
000001a0: b021 c43e cc83 0d3e 089e 693e 88cb d4bd
000001b0: c64b 65be dd39 0e3e 9c19 42be abea 523d
000001c0: ce99 abbc 0045 b63e 9d9f 3b3e 9ac1 1fbe
000001d0: e051 6ebe 311f e6bd 8c78 27bc 5893 5ebd
000001e0: 0c3a 35be 3db7 20bd 9975 8bbd 8731 36be
000001f0: b208 12be ee14 16bc 9680 6bbe 669f afbe
00000200: d0a7 b83e d0b4 833d ee46 423d f8ea f5bd
00000210: c2f3 233e 520d 713c 5b63 5bbd 90dd 21bd
00000220: 52d2 e3bd e4ed 5d3e 1175 d13d a1a3 833e
00000230: 1e38 3c3e 260f f63c c2ce c13d d3d4 48be
00000240: fdd9 30bd ce04 5b3e ffdb 123e 0e0f 433d
00000250: d9cf 1a3d 9c83 b33d dd92 75be 9b56 93be
00000260: 1931 183e 07e2 a9bd 3782 25be e152 e43d
00000270: 0409 553e 3b6e 1dbe 5a2d 733e 306f 9a3d
00000280: 6a02 2cbe 682c ba3e 1542 62be d3e1 acbc
00000290: e176 083e 3a70 b3bc 2479 12bd da75 97bc
000002a0: 60ea 97bc a77c 3bbd 4e04 3d3e 27ca 3ebe
000002b0: 465c 85bd 829c f93d cceb 86bd 7590 41be
000002c0: 7254 23bd 6f93 b03e a31a 57bd 7842 1ebe
000002d0: 4cff 323d ceee ba3b 49f7 38bd f2d1 803e
000002e0: 3a46 e33d 5f27 073e ef36 3abd 8cf7 c43d
000002f0: 5550 dc3d f5ca e8bd 2246 40be dc3d 06be
00000300: 02b5 82bd 06e1 bdbd 3f5a f6bd c1f3 92bc
00000310: ec19 89bd 2074 133e 9a9e 70be 8e15 21bd
00000320: 60fd 02be 5c58 ffbd 1826 bdbd 40a1 ecbd
00000330: 6fa2 223d 57f7 b63d a403 803e d848 fcbb
00000340: 33cd bd3d 39bd 6bbd 5a6a 8abc 940d bbbe
00000350: 0369 f03d 1fbb 8abe 54c9 0fbe 357c 92be
00000360: 9af9 563d 54e3 2fbe a3e2 d33c 1bdf 85bd
00000370: 57a4 cebc 8997 853e 2e9f 8d3c f286 773e
00000380: 72fa 5e3d 2835 86bd 5891 8ebd 5b76 083e
00000390: 5199 013e 77fe d8bd bdc3 863d 383f f23e
000003a0: ea8b 00be d4a7 e4bd cbba 3a3e b9cc 273e
000003b0: 4f5f 76bd 5e02 66be 4aa4 e8bc c6e2 0a39
000003c0: a9cf 073e 3dfb 823c 7e4b b1bd d14c 313d
000003d0: 3b1f 5d3c ef68 f63d 535f c1bd 59cd 7bbd
000003e0: 3e91 3f3e d10c b4be 8211 35be b275 5e3d
000003f0: 0a4c 11be 5860 423c bdac 863d 1c18 8ebe
0.012052484 -0.024844315 0.053571504 0.01406621 -0.13200887 0.22810927 -0.019148715 -0.062207576
0.0759729 0.017161805 -0.01976189 -0.06574396 0.0057521705 -0.25762826 -0.36413655 0.18367986
-0.043773923 -0.017780147 -0.10333051 0.06396535 0.2816532 0.096133105 -0.029493134 -0.014375786
0.00025284465 -0.08132186 0.20082563 -0.09248907 0.020794097 -0.39600644 0.35941792 -0.042828366
-0.26342657 -0.11096699 -0.16362774 0.23287226 0.095273755 0.09963858 -0.23053157 0.10624453
0.4685231 -0.08705534 -0.22749364 -0.1612746 -0.059893183 0.027933681 -0.21114537 -0.11312475
0.20012617 0.07724976 0.12767068 0.08449262 -0.21142867 0.012799472 0.19015706 0.14080018
-0.057374913 -0.051679887 0.016887788 -0.09568553 0.058624096 -0.19039135 -0.19999222 0.027874632
0.20015506 0.09076967 0.23318696 0.018481873 -0.064101204 0.21429534 0.1754612 0.040775403
-0.13637143 0.1362559 0.10664622 0.12253657 0.049060177 0.039555743 0.027708227 -0.13161542
-0.21880421 0.10715414 0.092470944 0.048671618 -0.0038555653 -0.14092144 0.38123453 0.033725597
-0.2513339 0.18684179 -0.115262985 0.011226655 -0.33815002 -0.052858528 0.12291529 -0.091901086
0.1802241 0.023807783 0.084402986 -0.07958978 -0.08165069 -0.098185584 0.03506408 0.09792845
0.38306952 0.13819808 0.2281419 -0.10390383 -0.22392187 0.1388926 -0.18955082 0.051493328
-0.020947363 0.35599518 0.18322606 -0.15601197 -0.2327342 -0.11236418 -0.010221612 -0.054339737
-0.17697924 -0.03923725 -0.06809539 -0.1779233 -0.1426113 -0.009160263 -0.2299827 -0.343013
0.3606553 0.064309716 0.047430925 -0.12007707 0.16010955 0.0147126485 -0.05356155 -0.03951794
-0.111241 0.2167278 0.10227407 0.25710776 0.18380782 0.03003652 0.09463264 -0.19612436
-0.04317664 0.21388552 0.14341734 0.04762178 0.037795875 0.08765337 -0.23981805 -0.28777012
0.1486248 -0.082950644 -0.16162954 0.111486204 0.2080422 -0.15374081 0.23747769 0.075407386
-0.16797796 0.36362004 -0.22095521 -0.021103775 0.13326599 -0.0219041 -0.03576006 -0.018488813
-0.018544376 -0.045773175 0.18458673 -0.18631802 -0.065117404 0.121880546 -0.065879434 -0.18902762
-0.039875455 0.34487483 -0.052515637 -0.15455043 0.0437005 0.0057047373 -0.045157705 0.25160176
0.11097379 0.13198613 -0.045462545 0.09617528 0.107575096 -0.11366836 -0.18776754 -0.13109535
-0.06382181 -0.092714354 -0.12028932 -0.017938497 -0.06694397 0.14399767 -0.23498002 -0.039327197
-0.12791967 -0.12468025 -0.092357814 -0.115541935 0.03970569 0.08933895 0.25002778 -0.0076991133
0.09267654 -0.057553504 -0.016896416 -0.36533797 0.117387794 -0.27095887 -0.14041644 -0.28610387
0.052484132 -0.17176563 0.025864905 -0.065366946 -0.025224848 0.26092175 0.017287817 0.24172571
0.054438062 -0.065531075 -0.06961316 0.13326399 0.12656142 -0.1059541 0.06580303 0.47313857
-0.12553373 -0.11164823 0.18235318 0.16386689 -0.060149487 -0.2246184 -0.028398652 0.00013245185
0.1326281 0.01598894 -0.08656977 0.04328615 0.013496215 0.12031733 -0.0944201 -0.06147513
0.18707749 -0.35166028 -0.1768246 0.05431146 -0.14189163 0.01186379 0.06575916 -0.2775277

rnn.weight_hh_l1 f4 [128, 128]
00000000: bda8 243e 74f9 343d e3d6 ffbd 1dad 863d
00000010: 2c0e c23c d1c5 13be 8dc4 90bd e1ec 233e
00000020: cec7 cc3e 45d5 733b 6d27 03be cbe2 1a3e
00000030: 7699 013d 473f 383e 618f 553d b0c7 aa3d
00000040: a448 7cbe 9b60 963e f7e3 d83c e372 033e
00000050: b62d a8be 0da0 a63c eef1 d63e 2982 c23e
00000060: 1a4a 98be c8b5 0f3e 7591 823d 491d c2bc
00000070: c574 d2bc 06b0 6d3d c907 933c d839 a4be
00000080: bdd4 05be 16bd aebd a2e5 013c 83c1 49bd
00000090: 0882 97bd 32b3 9d3d dcdb aebe b390 2f3e
000000a0: bfc0 75bd 59a0 093f 4f0d b33d 4686 f4bd
000000b0: 3637 a8be 2d0c 28be 30c6 15bd 54c7 93bd
000000c0: baa0 64bc 8733 83bb 1504 43bd f630 803e
000000d0: a658 d3bd b54c 6b3e 185e 803e 76e4 c23d
000000e0: b550 8fbe 23b0 b9be 2f61 05be 4a37 073f
000000f0: 2f48 9d3d b62b 72be 5f30 17bd 3086 0bbe
00000100: 262e 453e 369a c6be 8838 373d c0ec b1bd
00000110: cb95 e0be 064e 45bd dd11 5dbe e688 a6bd
00000120: 2fb5 953e b31c 4f3e 0ab7 803d d636 0dbf
00000130: 54fa 01be 8c6c 893e c556 11be 00bc d8be
00000140: 4c91 a7be f01b 9b3e c0c4 c03d 5af8 acbd
00000150: 8cdb ca3d 5e4a 353e 0e6d 07be 2051 403d
00000160: 0fba 7abe 053c ba3d 9320 a5bd 3264 8a3c
00000170: 1353 20bd 996b 913e e646 94be 7e00 903e
00000180: 8e03 16be 4f02 40be 8f41 433c 9b37 07be
00000190: 9c8a debe 354a aabc b360 56bd b5f2 71bc
000001a0: 5875 47be caae 14be 3a3e 0e3e 91ab abbe
000001b0: 460e 5abe f191 99be 90b6 9d3d dc8b 3abd
000001c0: d82d a13d 5f1d 403e 01ea a2bd 59ee 3dbe
000001d0: db39 f53d 39a9 f8bd d0d9 113e 03cd 013e
000001e0: 9ddc 9d3d 7118 d1bd ab8d d0bd 780b 76bd
000001f0: f28e 183e cd50 353c 30e5 a4be 82da 8b3c
00000200: ba86 ac3d 2a03 2d3e 4a53 8a3d 7647 45be
00000210: fd1f 3c3e fcc1 71be a2e2 b8be 2b82 d03e
00000220: a5ba a7be 5229 913e 353a a23e c996 54be
00000230: 412e 29be dd27 923e 0267 91bd 3df3 e6be
00000240: fab2 dbbd f678 c83e 5f48 bf3d e6df 023c
00000250: dfed 703d 623c 40be e61d 583e b975 46bd
00000260: f370 013e d18b b23e 184d 0d3e c217 2dbe
00000270: cd3c e1bc 4162 d9bd cf47 12be 4c7e 8b3e
00000280: 8775 13bc fcd2 023e a235 67bd e4aa 043e
00000290: ee4a a33c 4be6 01be 66c8 803e 6876 10bf
000002a0: 7409 2bbd 514e e03d 98dd 43be 427b 35bc
000002b0: 5cb5 8d3e 8965 8c3e dedc f0be eb26 ff3d
000002c0: 6bcf 00be aa55 093f e520 d1be 2306 97bd
000002d0: 0458 95bc 1c4a 563e 0e36 d83d e125 d1be
000002e0: 3f3a 0d3e 5b0e c5be b48f 9dbe aa12 9ebe
000002f0: cd45 2e3d d044 933e c05c 5b3e ac49 09bd
00000300: 59b2 babd 241a 24be e1b7 91be 604c be3e
00000310: 9619 723e 39e5 1dbe 7910 6c3e 39b1 b23b
00000320: e31d 083e 11c5 22bd ca2a 8cbe 44b9 f4bd
00000330: fc37 823d e7eb 9d3e df88 933e 20ec c1be
00000340: fec4 4ebe e12c db3d a847 693e 9f08 e13c
00000350: cc3e 5bbe c316 54be f8a5 5c3e 91f6 eebd
00000360: 0d62 8f3e a1c2 7b3e f67b e6bd d310 883e
00000370: 8dd6 773d e2be 7d3d 5cbc 253e 41d7 94be
00000380: 70e5 ea3d 1529 74be 3c2d f5bd 6030 a0be
00000390: 8c85 52be 0b7f 333e 6cbc d13d dc5e 213e
000003a0: 2d46 9cbe 985a bebe bab4 0fbe d731 0d3f
000003b0: a062 963c 7e50 7f3e 7b42 edbc 3dd3 a6bd
000003c0: c644 54bd 2e7a bcbd 14b6 c3be 281c df3d
000003d0: c551 0b3d 7db3 003e 84cc 17ba 75bf acbe
000003e0: c233 edbe b5e2 113f 9d1b 953e fd85 a7be
000003f0: 1421 32be 5b07 84bd 5bf4 2e3e 69bb 973e
0.16079994 0.04418321 -0.12492158 0.065759875 0.023688398 -0.1443093 -0.07068739 0.16008331
0.3999619 0.0037205976 -0.12808008 0.15125577 0.031640492 0.17992888 0.05213869 0.083388686
-0.24637085 0.2937058 0.02647589 0.12836795 -0.32847375 0.02033999 0.41981453 0.3798993
-0.29744035 0.14034188 0.063754 -0.023695605 -0.025690446 0.058029197 0.017948048 -0.3207538
-0.13069434 -0.08532159 0.007928284 -0.049256813 -0.07397848 0.077001944 -0.34152114 0.17145042
-0.05999827 0.53760296 0.08742773 -0.11939673 -0.32854623 -0.16410895 -0.03656596 -0.07215753
-0.013954336 -0.0040039453 -0.047611315 0.25037354 -0.10319643 0.2297848 0.25071788 0.09516232
-0.27991262 -0.36267194 -0.13025354 0.5281874 0.076797836 -0.23649487 -0.036911365 -0.13625407
0.19255885 -0.3878953 0.044731647 -0.086877346 -0.43864283 -0.048170112 -0.21588846 -0.0813158
0.29239795 0.20225792 0.06284912 -0.551618 -0.12693149 0.26840627 -0.14193256 -0.42330933
-0.3272804 0.30294752 0.09412527 -0.08445807 0.099051565 0.1770415 -0.13225195 0.046952367
-0.24485038 0.09093479 -0.08062854 0.01689348 -0.039141726 0.28402403 -0.2896034 0.28125376
-0.14649794 -0.1875088 0.011917486 -0.13204806 -0.43465126 -0.020787338 -0.052338313 -0.0147673385
-0.19478357 -0.14519802 0.13890925 -0.33529332 -0.21294507 -0.29994157 0.07700837 -0.045543537
0.07870072 0.18761204 -0.07954789 -0.18547954 0.11973926 -0.12141652 0.14243245 0.12675862
0.07708094 -0.1020974 -0.10183271 -0.06006953 0.1489828 0.011066628 -0.32206106 0.017071966
0.084241346 0.16895738 0.067541674 -0.19265541 0.18371578 -0.23609155 -0.36110407 0.4072431
-0.32759586 0.28351837 0.31685033 -0.20760645 -0.1652155 0.28546038 -0.07099725 -0.4510745
-0.107274964 0.39154786 0.093399756 0.007987952 0.0588206 -0.18773034 0.21105155 -0.048452113
0.12640743 0.34872296 0.1379894 -0.16903594 -0.027494812 -0.106144436 -0.14285205 0.27244794
-0.009000189 0.12775797 -0.056447633 0.12955815 0.01993319 -0.12685506 0.25152892 -0.56430674
-0.041757062 0.10952438 -0.191275 -0.01107675 0.2767743 0.27421215 -0.47043508 0.12458595
-0.12579124 0.5364634 -0.4084541 -0.07374217 -0.018230446 0.20926708 0.10557185 -0.40849212
0.1379175 -0.38487515 -0.307737 -0.30873615 0.042547036 0.28763437 0.214221 -0.033517525
-0.09116048 -0.16025597 -0.284606 0.37167645 0.23642573 -0.15419473 0.23053159 0.0054532555
0.13292651 -0.03973872 -0.27376395 -0.11949399 0.063583344 0.30844042 0.28815362 -0.37875462
-0.20192334 0.10701919 0.22781241 0.027469931 -0.21410674 -0.20711808 0.21547687 -0.116681226
0.28004494 0.24585964 -0.112541124 0.26575336 0.060507346 0.06194962 0.16185135 -0.29070476
0.11469543 -0.23843797 -0.119715184 -0.31286907 -0.20558757 0.17528932 0.10241017 0.15758842
-0.3052229 -0.37178493 -0.14033785 0.55154175 0.018357575 0.24933049 -0.028962364 -0.08145759
-0.0518234 -0.092029914 -0.38224852 0.10894042 0.03401353 0.1256847 -0.0005790668 -0.3373982
-0.4632855 0.5698655 0.2912263 -0.32719412 -0.17395431 -0.064467154 0.17085402 0.2963517

rnn.bias_ih_l1 f4 [128]
00000000: 3a98 6bbe f11b e4be ed53 08bf 7c7a 6d3e
00000010: 06b0 c4bd d5be e5bd 8e90 5c3e 81d2 cebe
00000020: 8564 793e e13a 273f 83a7 a7be 47af bf3e
00000030: f693 bcbd b786 f3be c89e 9cbe b870 2cbd
00000040: 76b5 00be 64d8 c9bd 6401 b0be fbe6 7f3e
00000050: 9f0d eb3e 2a25 053e c17a 33bf c5c7 34be
00000060: 591c d6bc 0ca6 d6bd c493 48be f4c0 eebe
00000070: 0123 1f3e 770a e33e b274 dfbe e4ae a13e
00000080: 8ab4 17be 289f aa3e e195 9fbd 975a d23e
00000090: 5315 a6bd be85 d23e 40ce ea3e 4a98 033f
000000a0: 856f 19be c66e 22bc 905c e73e 33c5 0cbe
000000b0: c07b 8b3e 4e4f 12be bc90 d53e 3d0d febe
000000c0: f349 17bd 2655 c63e 26fd 00be a088 63be
000000d0: 2ac8 2cbe 288a 473e 43d4 a2bd 0d65 e2be
000000e0: 0066 c4bc 2a42 04bf c6fa 423d 9a96 a2bd
000000f0: 01cc a3be 80a2 a9bd bc89 0dbf 3de2 8abe
00000100: e824 a5be 958c 63be e007 bb3e de43 0fbf
00000110: 9a6f 20bd f387 a8be 381f 4cbe 46a3 863e
00000120: 74bc f33d 3b6b 203e a716 643e 3b80 453e
00000130: 3ee3 a3be bed2 66be 3b62 783d f873 febd
00000140: 7661 0f3e eba3 90be 5584 773e 732a 88be
00000150: c387 353e a4bb ac3d d7eb ecbd 509c a2be
00000160: 83d6 283e 3a83 973d 4dc6 03bf c1dc 9bbe
00000170: 5e2c 94be 62d7 603d 9a93 c8be 2bf5 febc
00000180: 3f66 053e be26 e63d 93e0 07bd 221b 453e
00000190: 9e73 e93d e106 e53d 3d00 293e 1c41 ee3d
000001a0: 6b54 c5bd acf5 9f3c 9589 1cbf 292d 64be
000001b0: 9bce b5bc ab2f 623e 0b40 18bd 2c38 3bbd
000001c0: a0f9 bb3e 14c0 bc3e 3604 a13e 91fe d4bd
000001d0: b4b0 b43e f6d3 f63d 716d aa3e 9429 fe3e
000001e0: b96e 83bd 22e2 bcbe 1034 b83e cad1 1fbe
000001f0: 72a1 713e e8ff 15bf d984 373e c92a b93d
-0.23007289 -0.44552568 -0.5325306 0.23191255 -0.09603886 -0.11218039 0.21539518 -0.40394977
0.24354751 0.6532422 -0.3274499 0.37438414 -0.09207909 -0.47563717 -0.3058989 -0.042099684
-0.12569222 -0.09855726 -0.3437606 0.24990456 0.4590883 0.13002458 -0.7010918 -0.17654331
-0.026136564 -0.1048089 -0.19587618 -0.46631587 0.15540697 0.44343922 -0.4364372 0.31578743
-0.14814964 0.33324552 -0.07792259 0.4108474 -0.08109536 0.41117662 0.4586048 0.5140425
-0.14983948 -0.009914106 0.45187807 -0.137471 0.2724285 -0.14288065 0.41711986 -0.49619475
-0.036935758 0.38736838 -0.12596568 -0.22220087 -0.16873232 0.19486296 -0.07950642 -0.4421772
-0.023974419 -0.5166346 0.047602437 -0.07938881 -0.3199158 -0.082829475 -0.5528829 -0.2712573
-0.3225472 -0.22221597 0.36529446 -0.5596293 -0.03916893 -0.3291622 -0.19933784 0.26296443
0.11901179 0.15665905 0.22274266 0.19287197 -0.3200931 -0.2254133 0.060640555 -0.12424463
0.14002022 -0.2825006 0.24171574 -0.26594886 0.1772757 0.08434227 -0.115684204 -0.31759882
0.1648808 0.07398076 -0.5147446 -0.3044186 -0.289401 0.054892905 -0.3917511 -0.031122765
0.13027285 0.11237858 -0.033173155 0.19248632 0.11399005 0.11182953 0.16503997 0.116335124
-0.09635242 0.019526325 -0.61147434 -0.22282852 -0.022193244 0.22088496 -0.03717045 -0.045707867
0.36713886 0.36865294 0.31448525 -0.10400117 0.35291064 0.12052147 0.33286622 0.49641097
-0.06417603 -0.36891276 0.3597722 -0.15607372 0.23596743 -0.58593607 0.17921771 0.09041364

rnn.bias_hh_l1 f4 [128]
00000000: 7eab 53be a15f b2be 3a49 03bf e577 883e
00000010: 73be 9cbd 1239 193d 4e2a 843e a1fd d6be
00000020: 5c29 693e b50f 123f 9f03 53be 2dd9 8e3e
00000030: 003b 97bd 11b6 02bf 4f21 ddbe 7063 a2bd
00000040: 52f9 69be bee9 b2bd 56aa 92be afbe a53e
00000050: d061 cf3e 3e66 5b3e c3b2 39bf f545 65be
00000060: d3fd 4b3d 32de a03c e4dc 5dbe ee0c ecbe
00000070: e024 0c3d 3a2f e03e bc55 0dbf dd9e 633e
00000080: cf13 91be fa50 c53e c329 96bd 25dc a63e
00000090: b915 8e3d 0cf6 843e 221d e83e fe7e 113f
000000a0: 947f 87bd d7d7 a8bd fea2 ab3e 8b25 9ebd
000000b0: 55eb b33e 7b74 0ebe 8eae d53e 001a 1abf
000000c0: a79b f9bc 4bf6 e73e 6c66 9cba 3ef9 fdbd
000000d0: 9526 33be a747 883e d0d3 1ebd 5f79 debe
000000e0: 9195 a4bb d25f 0cbf c5bb 413c c315 b3bc
000000f0: 8fe1 99be 423f 23be e1a1 2ebf 7081 58be
00000100: 2bbe 6abe e55c 48be 6de8 e73e e287 1ebf
00000110: 815c 76bd d350 b7be 2a35 efbd 8d61 6c3e
00000120: 1634 d23d 66ec 0f3e 8b02 c13e bd9e 133e
00000130: 46bf 33be 9573 03be dd63 8c3c 4627 82be
00000140: 90bd 9b3d 91a5 96be 7369 203e 8c59 84be
00000150: 4316 853d 3584 193e af2e 4abe 6616 eebe
00000160: 279d d83d 546a 873c 0021 f7be 5fe0 babe
00000170: 931b 75be b56c fa3d d044 01bf f67f b9bd
00000180: f9f9 1c3e e63b 323e 3457 ed3d f057 fe3d
00000190: 1877 0d3e aa42 183e 2ed2 173e 1962 13ba
000001a0: ddbb 16be a7f9 943c 8a06 32bf b0fa 6abe
000001b0: d361 12bb 5f3e 773e e79d c8bd cc0c 93bd
000001c0: ab29 f33e 0905 673e 4f4a c03e e456 02be
000001d0: 4c57 cc3e 75fd 013e 1c78 cb3e 991c da3e
000001e0: 016a e2bd 9242 d4be 93a4 d23e e7db 1abd
000001f0: f73e ed3d 0fdf fabe c676 1e3e 1c5d e43d
-0.20670888 -0.34838584 -0.5128361 0.26653972 -0.07653513 0.037407942 0.25813526 -0.41990378
0.22769684 0.5705522 -0.2060685 0.27900067 -0.073843 -0.5105906 -0.43189475 -0.079291224
-0.22849014 -0.08735989 -0.2864558 0.32372043 0.40504313 0.21425721 -0.72538394 -0.22389968
0.049802613 0.019637201 -0.21666294 -0.46103615 0.034214854 0.4378603 -0.55208945 0.2222857
-0.28335425 0.38538343 -0.07332184 0.32589832 0.06937737 0.2596897 0.45334727 0.568344
-0.066161305 -0.08244293 0.3352279 -0.077220045 0.35140482 -0.13911621 0.41734737 -0.6019592
-0.030469729 0.45305094 -0.001193238 -0.12401055 -0.17495187 0.26617166 -0.03877622 -0.43451974
-0.0050227125 -0.5483371 0.011824553 -0.021860963 -0.300549 -0.159421 -0.6821576 -0.21143126
-0.22924106 -0.19566686 0.45294514 -0.6192609 -0.060146812 -0.3580385 -0.11680062 0.23084088
0.10263841 0.14055023 0.37697253 0.14416023 -0.17553434 -0.1283706 0.017137462 -0.25420588
0.076045156 -0.29423192 0.15665226 -0.2584957 0.06498387 0.14991839 -0.19744371 -0.46501464
0.105768494 0.016530193 -0.48267365 -0.36499307 -0.239363 0.122277655 -0.50495625 -0.0905761
0.15329732 0.17405662 0.11588898 0.124191165 0.13814962 0.1486918 0.14826271 -0.00056222227
-0.14720102 0.01818545 -0.6954123 -0.22947192 -0.002233614 0.24144886 -0.097957425 -0.07180175
0.47492728 0.22560515 0.37556693 -0.12728459 0.39910352 0.12694342 0.39740074 0.42599943
-0.11055375 -0.4145704 0.41141185 -0.03780737 0.11584275 -0.48998305 0.15474996 0.11150572

hidden_to_intermediate.weight f4 [128, 128]
00000000: 76c2 99be 90f5 1fbd a3f7 d13d 2885 6dbe
00000010: 58a9 b3bd 578a 053e 0eab 0f3e 1309 4a3e
00000020: 3fc9 b3bd d17e 16be 8582 a03e bc09 773d
00000030: 2a1a 343e b11f d93d 8735 4a3e e1f4 a4be
00000040: 33e4 963d ea8d a8be 75dc 383d 5c1c 853d
00000050: 8c53 3bbe 95d4 fa3c aa8c b1bd ef40 9a3d
00000060: 8170 37be aa82 3b3e 0990 18be a9cf a63e
00000070: b388 b9bd 9b0b cabd 5a21 3bbe 61a3 99be
00000080: 616c eb3d 307d b93e f0a9 1a3e a726 5abd
00000090: 1eab 0dbe 5ac6 c1bd 3576 e23c ea44 b4bc
000000a0: 00eb 81be d778 10bd ee55 bfbe 6438 ab3d
000000b0: 700a 0dbd cab6 63be 150d 4b3d 1d5f 14be
000000c0: 98c1 3f3e bcd3 edbd f9da a23d a39f c6bc
000000d0: 54ea a3bd f29d d43d ef52 2dbe 092f e83d
000000e0: 7d4b 783d 35dc 28bd 1981 613e fcd0 9dbc
000000f0: c24e 673c 84ea 013e 74f2 53bd 69a9 aa3d
00000100: 80db 5e3e fc9d cfb7 9722 abbd de11 033e
00000110: 8346 8e3e c2ba 8fbe dbf8 433c e60f 42be
00000120: 45e5 87be afdd efbd 2d49 acbe e3ff 5bbe
00000130: 3333 5fbe b6e7 fa3c 84b2 ff3d fae3 25bd
00000140: 1bd8 d8bb 0828 9b3d 13f6 013e 1542 c33d
00000150: b089 1f3e f4be 4dbe 987a f4bd 6b2d 3a3e
00000160: c32c 263d 94c7 a3bc e85e bc3d 3a61 2c3e
00000170: f189 de3d 5639 33be 1c1e a43b 0366 e6bc
00000180: a3dc 0bbe 119d be3d bf7b 9cbd f937 213e
00000190: 9655 23be 1d02 423e 5618 a8be 898b bc3d
000001a0: 5dd0 c93e 6a76 5cbc 6a1e 113e 4c0a 6bbd
000001b0: 8e0f af3e 4937 3dbe 582c bebc 0aac 3e3e
000001c0: dce2 12be da1b 0ebe 7c5f f0bd eaf3 24be
000001d0: ab3d b13e 9c86 2dbd f12e 05bc 714f e9be
000001e0: 6f6c d33d 472a 143d 6f5b ee3d 290f 71bd
000001f0: aa03 143d 36fa 39be 8824 dd3e 9e9b a23e
00000200: 291f 543e daad 663e 3280 a43e 667e d4bd
00000210: 7a6a 8ebe f7f7 5f3e 574d 02be 7ea9 66bd
00000220: 2851 0c3d 1423 c9bd 5596 e5bd b7d0 01bd
00000230: e3cb 7fbd f9bd 413d b64d 64bb 88cc 58be
00000240: bb49 ff3d 0f5e 723e 3639 cf3d ef9f cb3e
00000250: ad56 173b 6f26 05be 8892 a63c eae5 b23e
00000260: e07d e1be 293c 07be 5706 793e f500 473e
00000270: 584b 2e3e 4ba0 cfbd ac0d 4f3d ed77 84bd
00000280: b8bd 83bd 65ca 2bbd 900f 81be e336 313b
00000290: 69b1 e8bc 3b87 25be 8136 133e 3e2f e9be
000002a0: 60f5 313e 3093 a8bd 01a4 35be c9b7 0a3d
000002b0: 5e8d 7abd bb03 2fbd ec87 5fbe 1f78 45bc
000002c0: 2f6a 943d 93d3 8bbd ff98 ccbd e2bf a73e
000002d0: 03d3 ae3c f7db aa3e 7010 303e 2a75 453e
000002e0: 81c7 a1bd ee0c c13d afc7 bbbd 279f 553b
000002f0: cb3f d43d cad6 dbbb eab8 6c3e e846 833d
00000300: d6c3 153e 92d2 02be 47e1 8f3c 5580 80bd
00000310: 1150 a3bd 7237 423d a8c3 de3d a8d1 cd3d
00000320: e0ab 8e3e 1c5c acbd 25cd 613e 92cc 823c
00000330: d7c9 193e 8e6e 8dbe 6be2 6c3c 5458 8b3d
00000340: 6863 1cbd 5c9f 66bd 70e3 a23d cb74 833e
00000350: 51ce 923d c533 08be 81ff 453e b268 543e
00000360: 524c 1c3e 0ec0 0abe 50a3 bd3e c79a f3bd
00000370: ea0a 0dbe b70f e5bd 7ce0 03bd e638 f83d
00000380: 67da 6a3d 1de6 e138 dfe2 d63d d36a 683d
00000390: a900 823d 52fe 4bbd 5287 debd 6149 14be
000003a0: c6f7 113e 9437 6e3d a152 5d3c eb5f 0cbe
000003b0: 92b4 243e 7139 223d 5b33 293e 3804 7fbd
000003c0: df66 96bd baae 23bd fa8f db3d d9bb 80be
000003d0: cd8f 09be 5cea 403d 09cf 183d b0c5 a3be
000003e0: dd49 60be e482 07be 3751 313d 5540 353e
000003f0: eb3d 90bd 812d ab3d 90f9 9b3c 37e9 9a3d
-0.30031174 -0.039052546 0.10252311 -0.23195326 -0.08772534 0.13041054 0.14030096 0.19730024
-0.08778619 -0.14696814 0.31349578 0.060312018 0.17588106 0.10601748 0.19746982 -0.32218078
0.07367744 -0.32920772 0.04513212 0.0649955 -0.1829359 0.030618945 -0.08669408 0.07531916
-0.1791401 0.18311563 -0.14898695 0.32580307 -0.090592764 -0.09865495 -0.18274441 -0.3000746
0.11495281 0.36228323 0.15103889 -0.053259518 -0.13834807 -0.09461661 0.027644256 -0.022005517
-0.25374603 -0.03527149 -0.37370247 0.08360365 -0.034433782 -0.22237697 0.049573023 -0.14489408
0.18726194 -0.11612651 0.07951922 -0.024246043 -0.08003679 0.10381688 -0.16926168 0.11337096
0.060618866 -0.04122563 0.22021903 -0.01926469 0.014117898 0.12687117 -0.051744893 0.08333094
0.2176342 -2.474989e-05 -0.08356207 0.12799785 0.2778817 -0.28072172 0.011961187 -0.18951377
-0.26542106 -0.11712205 -0.3364958 -0.21484332 -0.21796875 0.030628067 0.12485221 -0.04050062
-0.0066175587 0.07575995 0.12691526 0.095340885 0.15579867 -0.20092374 -0.119374454 0.18181388
0.04057003 -0.019992627 0.091977894 0.16833964 0.10866154 -0.1750234 0.005008472 -0.028124815
-0.13658385 0.09307302 -0.0764079 0.15744008 -0.15950617 0.18946119 -0.32831067 0.09206302
0.3941678 -0.0134559665 0.14171758 -0.057382867 0.34191555 -0.18478121 -0.023214504 0.18620315
-0.14344352 -0.13877812 -0.11736962 -0.16108671 0.3461736 -0.0423647 -0.0081288675 -0.4556842
0.103234164 0.03617313 0.11638533 -0.05885235 0.036136307 -0.18161854 0.43191934 0.31759351
0.20715012 0.22527257 0.32129055 -0.10375671 -0.2781561 0.21871935 -0.12724815 -0.056313984
0.034257084 -0.09821144 -0.11210314 -0.031693187 -0.0624503 0.047300313 -0.0034836358 -0.21171772
0.12465235 0.23668693 0.10118334 0.39770457 0.0023092434 -0.13002943 0.020333543 0.34941036
-0.44041348 -0.13206543 0.24318825 0.19433959 0.17020929 -0.10137995 0.050550148 -0.064681865
-0.0643267 -0.041941065 -0.25207186 0.0027040772 -0.028404908 -0.16164868 0.1437626 -0.45543855
0.1737876 -0.08231199 -0.17738344 0.033866677 -0.061169975 -0.042728167 -0.21829194 -0.012052565
0.072468154 -0.06827464 -0.09990119 0.32763582 0.021340853 0.33370945 0.1719377 0.19282976
-0.078993805 0.09426294 -0.09168946 0.0032596083 0.1036373 -0.0067089545 0.23117414 0.06410009
0.14625487 -0.12775639 0.017563475 -0.062744774 -0.07974256 0.047416158 0.10877162 0.100497544
0.27865505 -0.08416006 0.22050913 0.015966687 0.15018402 -0.2762341 0.014458279 0.06803957
-0.03818074 -0.05630432 0.079535365 0.25675043 0.07168258 -0.13300999 0.19335748 0.20743063
0.15263489 -0.13549826 0.3703866 -0.11894756 -0.13773695 -0.11184638 -0.032196507 0.121202275
0.05733719 0.00010771698 0.10492491 0.0567425 0.06347782 -0.049803086 -0.10865654 -0.14481117
0.14254674 0.058158472 0.01350847 -0.13708465 0.16084507 0.03960556 0.16523497 -0.062259883
-0.0734384 -0.039961554 0.10720821 -0.25143316 -0.13433762 0.047098503 0.03730682 -0.3198676
-0.21903177 -0.13233525 0.043290343 0.17700322 -0.0704306 0.083582886 0.0190399 0.075640135

hidden_to_intermediate.bias f4 [128]
00000000: f7bd d3be 569e 1dbe d536 6cbe 6bfb 06bf
00000010: 04a3 b1be 1df5 03bf 5e00 05bf 3535 b9be
00000020: 0273 ffbe 7de9 43be 515f ecbe 74ca 8cbe
00000030: f1ac c4be 8cc1 f3be 071b bdbe d10b c3be
00000040: 10ea acbe 4908 d1be 8735 e5be 137d 2abf
00000050: 9a63 09bf 47c9 99be a85d eebe b8a0 c9be
00000060: a66d 1cbf ee8c acbe 2055 0abf 2758 32bf
00000070: 0e3d 71be f87f cfbe c984 23bf 986a b7be
00000080: d47d dfbe 5d8b cfbe bc37 c7be cb17 a0be
00000090: 5f59 a3bd 61ae 10bf ff8b a4be bdb5 d8be
000000a0: 52f5 09be faeb b7be 1776 15bf 23cd d0be
000000b0: 103e b6be eed3 05bf e4f1 9dbe 9a94 0abf
000000c0: 81b7 09bf 4dde fcbe 0c19 b3be 9c37 b8be
000000d0: 965d 37bf 710b 81be a32a febe 93ff b7be
000000e0: e62c 0bbf 7567 96be 98cd 89be 8514 88be
000000f0: d51e ecbe 3b15 00bf 5d91 f0be db2e d8be
00000100: 66c4 eabe 8a9f 3dbf 0829 e1be 9cdd b0be
00000110: 6e05 07bf 0e48 d0be c0c2 8bbe 8928 d7be
00000120: 7663 b2be 94a3 eabe d33a bbbe 9875 e5be
00000130: a888 37bf 97f2 38be 4589 e2be 673c dcbe
00000140: 254c 5dbe c92d f3be 4541 2dbe c734 e7be
00000150: be5e 7dbe f337 21bf e3d1 c9be 66cd ddbe
00000160: f3e5 bfbe 3741 1ebf e9de c6be 96c7 c6be
00000170: e80b 72be 6a03 fcbd 7872 93be 1700 02bf
00000180: 530f a3be b46f 10be 51cc bdbe a866 52be
00000190: e48f 51be 35fa 85be 8242 0cbf 374f 02bf
000001a0: e2e1 f8be 1ac9 06bf f549 02bf b909 bdbe
000001b0: f443 56be 1369 15bf 6124 cbbe 45d9 82be
000001c0: f2ef 4ebe d816 01bf 60ce bebe c404 b2be
000001d0: f04a d5be beae 4ebe 7104 f1be 1b37 e7be
000001e0: a147 e0be 597b edbe 21bf c2be 1b6e 01bf
000001f0: 6834 27bf 5213 d7be 3c9e a6be 5f19 7bbe
-0.4135587 -0.15392432 -0.23067792 -0.52727383 -0.34694684 -0.5154589 -0.51953685 -0.36173406
-0.49892431 -0.19132037 -0.4616647 -0.2749821 -0.38413194 -0.47608602 -0.36934683 -0.38094953
-0.33772326 -0.40826634 -0.447674 -0.665971 -0.53667605 -0.30036375 -0.4655583 -0.3938043
-0.6110481 -0.3370127 -0.5403614 -0.6966576 -0.23558447 -0.4052732 -0.6387449 -0.35823512
-0.43650687 -0.40536013 -0.3890971 -0.31268153 -0.079760306 -0.5651608 -0.3213806 -0.42326155
-0.13472489 -0.35922223 -0.58383316 -0.40781507 -0.35594225 -0.52276504 -0.3084861 -0.54133
-0.5379563 -0.49388352 -0.34980047 -0.35979927 -0.71627176 -0.25204042 -0.49641904 -0.35937175
-0.54365385 -0.29375806 -0.26914668 -0.26578155 -0.46117273 -0.50032395 -0.46985903 -0.42223248
-0.45852965 -0.7407156 -0.43976617 -0.34544075 -0.5274266 -0.40679973 -0.2729702 -0.42023113
-0.34841508 -0.45827925 -0.36568317 -0.4481628 -0.71692896 -0.1806129 -0.44245353 -0.43014833
-0.21611078 -0.4749587 -0.1691943 -0.45157453 -0.24743173 -0.62975997 -0.39417943 -0.4332077
-0.37480125 -0.6181826 -0.38841942 -0.38824147 -0.23637354 -0.12305339 -0.2879827 -0.5078139
-0.3184763 -0.14105111 -0.37069944 -0.20546973 -0.20465046 -0.26167455 -0.5478898 -0.5090212
-0.48609835 -0.52650607 -0.508941 -0.3692148 -0.2092436 -0.58363456 -0.39676192 -0.25556388
-0.2020872 -0.5042548 -0.37266827 -0.3476926 -0.41658735 -0.20183846 -0.470737 -0.4515923
-0.4380465 -0.4638317 -0.38036445 -0.5055863 -0.6531434 -0.42006928 -0.32542598 -0.24521397
